Code/Laptop/Model/hand-gesture-recognition-mediapipe-main/model/keypoint_classifier/keypoint_classifier.tflite (tflite, 6600 bytes, 6 tensors)

arith.constant f4 [5, 10]
000000 66 fb 04 be e5 ba 34 bd 2e 57 80 3f 42 b7 02 bf
       -0.12986526 -0.04412355 1.0026605 -0.5106088
000010 51 f0 60 3f 03 c0 9c 3f 52 f4 55 3f 8b d3 74 bf
       0.87866694 1.2246097 0.8357593 -0.9563529
000020 b4 cb 75 be 5b 99 1e 3f 74 0e 15 3e 57 a9 21 3f
       -0.24003488 0.6195275 0.14556295 0.6314902
000030 e3 16 89 be f1 ca c5 3e 13 98 17 bf ef b3 f8 be
       -0.26775274 0.38631395 -0.5921642 -0.48574778
000040 b7 5a 3f bf ba 32 dc 3e 1b 3a 6b bf 05 6a 6d 3f
       -0.74747795 0.4300745 -0.91885537 0.927399
000050 3e c4 b8 bf a8 7b 10 3f 7d fb 73 bf d6 85 1d 3f
       -1.4434888 0.56438684 -0.95305616 0.6153234
000060 c9 80 87 bf a5 18 09 bf 1e ae 77 be 3a 67 71 bf
       -1.0586177 -0.5355323 -0.24187514 -0.94298136
000070 b0 ce a3 3f 09 df 46 bf c0 54 65 3f 4c db 85 bf
       1.2797451 -0.77684075 0.89582443 -1.0457549
000080 2e cd 9d 3e 59 df 9a bc a5 7a 8e 3e 5a a0 6a bf
       0.30820602 -0.018905329 0.27827945 -0.9165093
000090 28 0b 9f bc 94 25 29 3f 2d fd a8 bf 9f a9 99 bf
       -0.0194145 0.66072965 -1.3202263 -1.2004889
0000a0 62 96 83 3e 75 ee 8b bf 5c 11 2a bf 64 c0 5a bf
       0.2570067 -1.0932146 -0.6643274 -0.85449815
0000b0 4f 76 ea bd 60 33 99 3e 54 76 12 be 32 5d 5c be
       -0.11448347 0.2992201 -0.14302951 -0.21519926
0000c0 be 08 e1 be 53 df aa bf
       -0.43951982 -1.3349403

arith.constant1 f4 [10, 20]
000000 e5 56 0d bf c5 47 2a be bb 9d e4 bd 51 c3 eb 3e
       -0.55210716 -0.1662894 -0.11162897 0.46047452
000010 4c 88 ed 3e 6c e3 99 3d ac 04 06 3f ae 4d 2a be
       0.4639305 0.075140804 0.5235088 -0.16631195
000020 fd 0f 91 3d 1a cd 76 3d c5 ee ff 3e ca d1 20 3f
       0.07083128 0.060254194 0.49986854 0.6282011
000030 9f 11 7d 3f 21 8b 78 bf 06 2f 0b 3f 2b 4d ea be
       0.9885501 -0.97087294 0.5436863 -0.45762
000040 fb f0 f4 3e 07 42 d7 3b b1 04 19 be ae c4 4a 3e
       0.47840104 0.0065691504 -0.14943196 0.1980159
000050 84 17 21 3f bb 30 42 3f 4b 42 84 3f 95 09 3a be
       0.62926507 0.75855607 1.0332731 -0.18167718
000060 11 f3 8d 3f 7c 29 e2 bb 8a 16 8d 3f cf c4 03 be
       1.1089803 -0.006901918 1.1022503 -0.12868045
000070 c4 61 3f 3f 8e fb 9a 3f 61 16 2d be ac 48 c6 3d
       0.74758554 1.2108018 -0.16903068 0.0968183
000080 35 fe 91 bd 43 23 e5 3e e2 fa be 3e c3 ad 25 3f
       -0.07128564 0.44753465 0.37300783 0.64718264
000090 35 d5 df 3d bc 42 a3 3f 9c 2f 4a 3f 84 a9 b1 3e
       0.10929338 1.2754741 0.78978896 0.34699643
0000a0 b9 d5 f3 3d 76 c7 3d 3e 14 ce 17 be 59 16 bb 3e
       0.11905999 0.1853312 -0.14824706 0.36540487
0000b0 74 17 cc be 63 da 1c 3f 94 37 bc bb 6f 7d 58 bf
       -0.39861643 0.6127073 -0.00574393 -0.84566396
0000c0 0c 0b 54 3c b4 1e 6c bd 95 c0 91 3d 2f 93 32 bf
       0.012942087 -0.05764647 0.0711681 -0.69755834
0000d0 79 7a bc 3c e1 fc 90 3e 07 3a c6 3e f1 9d 24 bd
       0.023007618 0.2831793 0.38716146 -0.040189687
0000e0 8c cd c1 3e 17 90 cc 3d b8 fc 1b 3f 10 8e c1 3c
       0.37852132 0.099884205 0.60932493 0.023627311
0000f0 49 8b 7c 3f 83 53 27 3e be fd b4 3e 51 d0 09 bf
       0.9865003 0.16340451 0.3534984 -0.5383349
000100 5e 9e 2a 3f e2 9a fc bd 57 86 74 3f c8 a9 46 bd
       0.666479 -0.12334229 0.95517486 -0.04850176
000110 2c 5c 10 3e 8e 0d 45 3f 20 9e 2d bf c8 f8 3e be
       0.14097661 0.7697381 -0.67819405 -0.1864959
000120 d7 c2 10 3f 40 58 7e 3e 7d 7e 1d 3f 57 f2 3a 3e
       0.565473 0.24838352 0.6152113 0.18256508
000130 f2 10 31 bf de a8 85 3f ab df bd 3e 16 06 24 3d
       -0.6916648 1.0442159 0.37084708 0.040044867
000140 4b 08 9b 3c d1 02 fc bd 9e ec bb 3e 35 fd 40 bf
       0.018924853 -0.12305225 0.36703962 -0.75386363
000150 3c 37 82 be c2 f9 06 3f 11 56 ed bd d2 0c 6e 3e
       -0.25432765 0.5272485 -0.115886815 0.23247078
000160 02 90 d9 3c 03 35 84 3b c7 0e 84 3f 8b bd 18 bf
       0.026557926 0.00403464 1.031701 -0.5966422
000170 1e 4c 4a 3d a9 52 62 be f0 5f fe be e6 04 9c 3a
       0.049388997 -0.22101845 -0.4968257 0.0011903315
000180 e5 95 8e be 4a 02 79 bd 45 ea 8a 3e 8b d6 9a 3e
       -0.27848735 -0.0607932 0.27131858 0.30241808
000190 38 ca 85 be e6 ca cb 3d 7f 02 01 3f ce c2 45 3e
       -0.26130843 0.09950809 0.50394434 0.19312593
0001a0 33 30 fa be e1 17 57 3e c0 60 d5 bd a0 de 1b 3f
       -0.48864898 0.21005203 -0.10418844 0.60886574
0001b0 0d 3a 42 bc 11 8b 80 be 57 9a a8 bd a2 03 55 be
       -0.011854661 -0.251061 -0.08232563 -0.20802167
0001c0 81 fa ef be 3e bc 0b 3c da fb be be ca 8d 62 3e
       -0.46870807 0.008528767 -0.37301522 0.221244
0001d0 8c e6 3a 3d 86 6c 8d be 08 06 27 bf 20 1f 31 3f
       0.045630023 -0.2762186 -0.6524358 0.6918812
0001e0 ed 41 23 bf f3 d5 2f 3e bc 22 8a 3e ec ca 4f 3e
       -0.6377247 0.17171459 0.26979625 0.20292252
0001f0 ab f1 2a bf 9b a4 94 3d 51 30 b3 be b1 09 07 3f
       -0.66775006 0.072579585 -0.349978 0.5274916
000200 66 e8 80 3e a6 a4 30 bf 2c 8d 76 3e 7f 9c 35 3f
       0.25177306 -0.69001234 0.2407729 0.7094192
000210 88 86 e9 be c8 92 e9 3e 2d 2c 8a 3e 12 46 39 3e
       -0.45610452 0.45619798 0.26986828 0.18093136
000220 3f 22 b9 3e 6a 4c 2e bf de 6b 0e 3f d1 29 ba 3e
       0.3615894 -0.6808535 0.5563334 0.36360028
000230 84 7b 73 3f 7c 80 5c be aa 7b a0 bd 54 28 53 bb
       0.95110345 -0.21533388 -0.07836087 -0.0032220082
000240 15 52 1a bf 17 d1 f1 3b 7d a6 b7 be c7 de 57 3c
       -0.602815 0.007379662 -0.35869208 0.013175673
000250 b6 20 9e be 88 f2 06 3f b5 45 0b be f6 73 01 be
       -0.3088433 0.52713823 -0.1360081 -0.12641892
000260 26 66 e3 bd 5e a2 d9 bd 0d b5 e1 bd 01 90 f7 3e
       -0.11103468 -0.10626672 -0.11020861 0.48352054
000270 12 84 d2 3e 7b 53 af 3e 37 1f 01 bd eb 57 e2 3d
       0.41116387 0.34243378 -0.03152391 0.11051925
000280 7a 02 0f bf 63 5e 1e 3f 08 59 97 3e af 10 60 bf
       -0.55863154 0.6186277 0.29560113 -0.8752546
000290 9e 00 cb be a8 62 d3 bc b7 cc 82 bc d0 41 24 bf
       -0.39648908 -0.025803879 -0.015966756 -0.6416292
0002a0 aa 2b b1 3d 20 e8 0b bf 22 59 ab bf 01 32 1b bf
       0.086509064 -0.5465107 -1.3386576 -0.60623175
0002b0 fc bc 34 bf 89 95 16 be aa 0b be bd a0 fe 1a 3e
       -0.7060087 -0.1470548 -0.092795685 0.15136194
0002c0 05 4a 98 bf d6 c4 19 3e 60 63 2a 3e 85 04 eb be
       -1.1897589 0.15016493 0.16639471 -0.45901886
0002d0 a8 e3 48 3f 12 8c a9 bd 50 1a 85 3e cf f1 0b 3e
       0.78472376 -0.082786694 0.25996637 0.13666461
0002e0 c5 a0 3e 3f 45 87 70 3f 31 05 34 3f fd f1 e1 3e
       0.74464065 0.93956405 0.7032042 0.44129935
0002f0 92 9c 9e 3e c0 57 a7 3e 36 c3 a3 3d 07 c0 03 3e
       0.3097883 0.32684135 0.07996218 0.12866221
000300 89 83 1b 3e 9a 59 57 3f b9 aa 1e be 4c 7e 01 3f
       0.15186895 0.84121096 -0.15494813 0.5058334
000310 55 2a c5 3c 0b 98 42 3e cd 66 b5 3e e5 b7 3f 3f
       0.024068037 0.19003312 0.35429993 0.74889976

arith.constant2 f4 [5]
000000 b3 fa e6 be 27 a4 a8 bd b0 52 f3 3e eb a9 0e bf
       -0.45113143 -0.082344346 0.47524023 -0.55728024
000010 55 ed 64 3f
       0.8942464

sequential_1/dense_1_2/BiasAdd/ReadVariableOp f4 [10]
000000 9e f4 63 3e 93 73 d8 3e cd e4 d9 be 6b 27 32 3f
       0.22261283 0.42275676 -0.42557374 0.695914
000010 a8 66 45 be 0f eb be 3e 57 ee fe 3d 2c 0b 69 bd
       -0.19277442 0.3728871 0.124478035 -0.05689542
000020 be 86 52 3f 6c 1f 46 be
       0.8223685 -0.19347924

sequential_1/dense_1/BiasAdd/ReadVariableOp f4 [20]
000000 7b 14 8c bf cc ea ee be 25 6c bd 3e 33 70 a5 be
       -1.094375 -0.4666351 0.3699657 -0.32312164
000010 3d 3b 82 bf 3a ce c7 be c4 ac 1b bf 14 8b aa be
       -1.0174328 -0.39024526 -0.60810494 -0.33309233
000020 5d 20 7f bd 73 06 4c bf 48 68 ce be c7 7d 3e bf
       -0.062286723 -0.7969734 -0.40313935 -0.7441067
000030 6f 8d 33 bf 57 0b 59 bf 8e d1 1c bf f1 34 f9 be
       -0.70137686 -0.8478293 -0.61257255 -0.48673204
000040 e5 16 06 bf fe 5d 21 bf 93 9b 08 3f 2d 37 f7 be
       -0.52378684 -0.63034046 0.5336239 -0.48284283

sequential_1/dense_1/MatMul f4 [20, 42]
000000 3b 4d 50 be c4 47 9c be 09 69 a6 be 15 71 0b bf
       -0.20341961 -0.30523503 -0.3250201 -0.54469424
000010 65 06 02 3c 9f 9b b5 be cc f7 05 3e 3f f3 df be
       0.007936095 -0.35470292 0.13082808 -0.4374027
000020 9a 7e d1 bc 50 1d ca bd a5 62 db bd 55 40 14 be
       -0.025573064 -0.09868872 -0.10712174 -0.14477666
000030 a8 77 95 3c 85 e1 08 be 36 2f 61 3d 34 88 a4 3c
       0.018245533 -0.13367279 0.054976664 0.020084478
000040 aa 05 23 3d 0e bb 99 3d 4b 8f e4 3c 39 8b 0c be
       0.039800324 0.07506381 0.027900359 -0.13724984
000050 cd e0 71 3d 35 cf 1b be 4f dd e4 3b 30 ae 10 3d
       0.059052277 -0.15215762 0.00698439 0.03532237
000060 19 f0 42 bb c2 e9 68 3d 2b f8 1d bd 18 a7 a2 be
       -0.002974516 0.056863554 -0.03856675 -0.31768107
000070 02 ee 1b 3d 93 5f 0b be c6 25 c9 3b d5 36 5d 3d
       0.03806878 -0.13610677 0.006138536 0.05400737
000080 cd f9 bd 3b 15 ef 9d 3d 3d 29 4c 3b a2 53 42 be
       0.005797601 0.07711617 0.003115251 -0.18977216
000090 35 56 a9 bc 29 ae 8e be 62 01 f9 3a db ac 34 3c
       -0.02067099 -0.2786725 0.0018997604 0.01102754
0000a0 0b e3 8e bc 34 eb c6 3d 10 a9 4c be 00 96 39 bb
       -0.017442247 0.0971283 -0.19986367 -0.0028318167
0000b0 4a 96 c3 be 21 07 75 3e 89 63 28 be fc fb fe 3d
       -0.382006 0.239285 -0.1644422 0.12450406
0000c0 30 1a 2b b8 9d fa 70 3e 99 98 30 3e f3 e0 93 3e
       -4.0793966e-05 0.23533101 0.17245711 0.2888256
0000d0 77 c3 69 be 8b ac 9f bd 80 f6 13 be 32 5e 89 bd
       -0.2282847 -0.07796582 -0.14449501 -0.067074195
0000e0 89 35 e5 3d d8 2b de be de e4 4f 3f fc 3c d9 be
       0.11191852 -0.43392825 0.812086 -0.4242934
0000f0 fe 15 a4 bd e6 26 f1 bd b1 d1 ae bd 8c 31 ed 3d
       -0.08012007 -0.117749974 -0.08536089 0.11581716
000100 49 9b 25 be fa 44 50 3e 8c b8 53 be f6 75 1c 3e
       -0.16172518 0.20338812 -0.20675868 0.15279374
000110 ff 63 48 3e c3 cc 97 bd a6 0f c6 bc b0 e7 cd 3d
       0.19569395 -0.07412102 -0.024177384 0.100539565
000120 21 55 59 be 63 c0 ef 3d e3 4e e2 bd e2 18 94 bd
       -0.2122388 0.11706617 -0.11050203 -0.072313085
000130 45 39 52 3e 07 dd ee bd 3e 70 ce 3d f6 a5 b4 3d
       0.20529659 -0.11663251 0.10080002 0.08820717
000140 83 b9 c8 3c a1 4c bd 3d ae 6a 44 bc f7 57 be bc
       0.024502521 0.092431314 -0.011988325 -0.023235304
000150 e0 46 b6 3d f1 03 30 be af 36 0c 3e b5 1e 98 3e
       0.08900237 -0.17189004 0.13692735 0.29710928
000160 cc 13 d9 3c 4f 69 9a 3d 9c e5 be 3c d5 0c 1e 3b
       0.026498698 0.07539617 0.023302846 0.0024116535
000170 84 da 88 3d f8 cc 60 bd be 50 3b be c9 2a 13 3d
       0.066823035 -0.054882973 -0.1829252 0.035929475
000180 4d af b0 be 3e 61 5b 3b 60 6e db be e5 a3 04 be
       -0.34508744 0.003347471 -0.42857647 -0.12953146
000190 73 28 e0 be 22 c0 c4 bc 65 37 69 be f2 fe 2a bd
       -0.4378086 -0.024017397 -0.22775038 -0.04174704
0001a0 c1 23 8c be 0f 9f 9c 3d ce cd 33 3e 81 e1 56 3e
       -0.27371028 0.076475255 0.17558977 0.2098446
0001b0 e8 cc 54 3f 34 08 76 3e 60 0a ac be c8 06 45 3d
       0.8312516 0.24026567 -0.33601665 0.04810217
0001c0 d5 22 79 be 6a c5 ea 3c f3 b2 14 3f c4 36 5f 3e
       -0.24329694 0.028658587 0.58085555 0.21798235
0001d0 4a 3f 46 3f 86 66 63 3e 81 4c c7 be f5 91 5f 3e
       0.7744032 0.22207078 -0.38925555 0.21833022
0001e0 ed 33 63 be af cd f6 3d 06 93 8a 3e 34 ce 35 3e
       -0.22187777 0.1205095 0.27065295 0.17754441
0001f0 6f 34 3b 3f c4 13 28 3e dc 75 9b be a0 77 a7 bc
       0.7312688 0.1641379 -0.30363357 -0.020442784
000200 6f a6 5f 3d 7d bc 82 3e 62 71 93 bd 23 95 d7 3d
       0.054602083 0.2553443 -0.071993604 0.105264924
000210 ae 67 a9 be 0f cd 07 3e 2c f4 14 bf 09 13 22 3e
       -0.33086914 0.13261817 -0.58185077 0.15827574
000220 b3 28 ab 3d b3 d6 51 3e 10 20 c2 3d 8b 46 b3 3d
       0.08357372 0.20492058 0.09478772 0.087536894
000230 1f 36 03 3d bb ca 0c 3d fd 21 94 bb cc 8a 99 3b
       0.032034036 0.034373026 -0.0045206533 0.0046857353
000240 d4 2d b0 3d 3d a7 15 3e 07 17 ff 3c 19 87 a5 3d
       0.08602491 0.14614578 0.03113891 0.080824085
000250 a1 af 0f 3e 2a 8a 33 be 0c 68 53 3e ff e6 77 be
       0.14031841 -0.17533174 0.2064516 -0.24209212
000260 3c 0e 24 bd 48 f1 2b 3e b9 49 66 3d 4d 5b 54 3d
       -0.040052637 0.1679126 0.05622265 0.051844884
000270 ea ef b0 3e d7 c4 95 be 74 aa 0d 3f c6 0d 48 bf
       0.3455804 -0.2925174 0.55338216 -0.78146017
000280 4c 2b 2b be ec 97 28 3e a2 08 df bd 97 af 14 3d
       -0.16715735 0.16464204 -0.108903185 0.036300268
000290 6b 92 2c bd b8 6d 6f be df 4f 74 3e b2 20 92 be
       -0.042131823 -0.23381698 0.23858593 -0.2854057
0002a0 c0 70 53 3e 88 33 15 3e d5 dc 0d bf 64 ae b2 be
       0.2064848 0.14570439 -0.5541509 -0.34898674
0002b0 6f bd af be ce 71 11 bf 7c 66 75 be e7 56 20 be
       -0.34324214 -0.5681428 -0.23964876 -0.1565815
0002c0 18 42 0b be 72 78 64 be b1 d1 e1 be 0d fd 95 bd
       -0.13599432 -0.22311571 -0.44105294 -0.07323656
0002d0 ae 8b 1d be 29 03 a5 bd 8e 87 27 3d 08 39 03 bb
       -0.15385315 -0.080572434 0.04090076 -0.0020023007
0002e0 23 48 1e 3e 70 8b af 3d 8b 00 6e be 9c 01 30 bd
       0.15457205 0.085715175 -0.23242395 -0.042970285
0002f0 87 1d 50 be c5 69 ec bd 43 9f 0a 3d 76 42 45 3c
       -0.20323764 -0.115436114 0.03384329 0.012039771
000300 ac 02 7d 3d aa 56 1a 3d b6 f5 fb 3c 41 a5 1c bc
       0.061770126 0.037680306 0.030756813 -0.009560884
000310 63 6c 4a be 2c 4b 5c bd c8 29 8f 3d cf 9f cb 3a
       -0.19767909 -0.053782627 0.06990391 0.0015535298
000320 0d 7c f6 3d fc 36 b0 3c c3 57 20 3e 36 1d 22 3d
       0.120353796 0.021510594 0.15658478 0.03957864
000330 36 e5 0c bd f6 3c f6 bc 12 ca 47 3d bd 26 ae 3c
       -0.03439828 -0.030058365 0.048776694 0.021258706
000340 70 3d 53 3d 33 66 34 3d 04 8a 11 3e 10 5e ba 3d
       0.051572263 0.044042777 0.14212805 0.09099972
000350 21 26 55 be 21 b5 cb bd 1b a2 3d bd 0a 49 c1 be
       -0.20815326 -0.09946657 -0.046297174 -0.37751037
000360 a0 24 5e be ac 64 f0 be cf 5e cd be 16 ed e0 be
       -0.21693659 -0.46951807 -0.40111396 -0.43930882
000370 88 7d ae bc 20 a1 38 3e f2 7c 24 3b c7 c4 5f bc
       -0.021300092 0.18030214 0.0025098887 -0.013657755
000380 33 35 82 3c bf 5d bb ba 17 ad 5b 3d 87 62 11 3d
       0.015894508 -0.0014294906 0.05363187 0.035494354
000390 1c d0 26 be 19 f9 40 3e ba 9a 0e 3d eb 70 52 be
       -0.16290325 0.18845023 0.034815527 -0.20550887
0003a0 e5 67 7b 3d 30 4e 24 bd 93 00 be 3d a1 82 cf 3e
       0.06137838 -0.040113628 0.09277453 0.4052935
0003b0 36 9d 09 be dc cc e8 3d 08 a1 ca 3d 57 cd 2f be
       -0.13438877 0.11367199 0.098939955 -0.17168175
0003c0 e7 58 2f 3e b7 f0 eb 3d 94 34 c0 3d 33 c5 89 3f
       0.17123757 0.11520522 0.093850285 1.0763305
0003d0 94 09 4c be e7 4d 0b 3d 3d f1 a4 3d 44 54 41 be
       -0.19925529 0.03400984 0.08053825 -0.18879801
0003e0 44 4f bb 3e d8 38 1f 3e 16 69 1f 3e 59 6a 2e 3f
       0.36583912 0.15549028 0.15567431 0.68131024
0003f0 61 2a 9a be a8 74 80 bd ec d8 1c 3f 60 f4 90 be
       -0.30110458 -0.062722504 0.61268497 -0.28311443
