Code/Client_Code/hand-gesture-recognition-mediapipe-main/model/keypoint_classifier/keypoint_classifier.tflite (tflite, 6580 bytes, 6 tensors)

arith.constant f4 [10]
0	0xbe3b5095	-0.18292458
1	0x3ed5cd28	0.41758084
2	0x3eb70d2c	0.35752237
3	0x3ed4e5f0	0.41581678
4	0xbdb4466e	-0.08802496
5	0x3f203c96	0.62592447
6	0x3e1cd857	0.15316902
7	0x3e9c7879	0.30560663
8	0xbed90e2b	-0.42393622
9	0x3da9d54e	0.08292638

arith.constant1 f4 [5]
0	0xbebb739d	-0.36611643
1	0x3c8f2562	0.01747388
2	0x3f1bf35c	0.6091821
3	0xbde88ffe	-0.11355589
4	0xbdeedf81	-0.11663724

arith.constant2 f4 [5, 10]
0	0x3ef1b9a6	0.4721195
1	0xbf55ac63	-0.83466166
2	0xbf7c95e2	-0.98666203
3	0x3de897bd	0.11357067
4	0x3eb0671d	0.3445367
5	0x3d4526e0	0.048132777
6	0xbf0c2d51	-0.5475665
7	0xbf6ecc2f	-0.9328031
8	0x3f75e563	0.9605314
9	0x3f07cd84	0.53047967
10	0xbd1df172	-0.03856034
11	0xbf00ac50	-0.5026293
12	0x3dc3cb09	0.0956021
13	0xbea729ff	-0.32649228
14	0x3f2c5e0e	0.67331016
15	0x3e1d7c80	0.15379524
16	0x3f394e48	0.7238507
17	0x3f29126a	0.6604372
18	0x3e0e334b	0.13886754
19	0x3ea9a08c	0.331303
20	0xbf49daec	-0.78849673
21	0xbe6bc804	-0.23025519
22	0xbf951a95	-1.1648737
23	0x3f796f39	0.9743534
24	0xbf23fab7	-0.64054435
25	0x3d2618d3	0.040551018
26	0xbf604d25	-0.87617713
27	0x3e86616e	0.26246208
28	0xbe56fd71	-0.20995118
29	0xbdfd61d0	-0.12372172
30	0xbe23d886	-0.16000566
31	0xbf89e181	-1.0771943
32	0x3ef36dbc	0.47544658
33	0x3e1bc641	0.15212347
34	0xbf5e4722	-0.8682729
35	0x3f802b11	1.0013143
36	0x3e2657d4	0.16244441
37	0xbef0824c	-0.4697441
38	0xbcbc9ccf	-0.02302399
39	0x3eeede70	0.4665408
40	0xbebcd3d7	-0.3688037
41	0x3e841c8b	0.25803027
42	0x3f0781c7	0.529324
43	0xbea334b1	-0.31876138
44	0xbf1ff5fb	-0.6248471
45	0xbda2b492	-0.07944597
46	0xbeb07a41	-0.34468272
47	0x3d5873a8	0.052844673
48	0xbdd5716c	-0.10422024
49	0xbf5cdef6	-0.8627771

arith.constant3 f4 [10, 20]
0	0xbef00207	-0.46876547
1	0x3ccbb211	0.024865182
2	0xbbfd097b	-0.0077220774
3	0xbea7bb65	-0.32760158
4	0xbe866cc8	-0.26254869
5	0xbe36e2f1	-0.17860009
6	0xbea69429	-0.32534912
7	0x3e04daf6	0.12974152
8	0x3f0cf956	0.55067956
9	0x3e210190	0.15723252
10	0xbf1a7b54	-0.60344434
11	0xbe055b30	-0.13023067
12	0x3f53190a	0.8246008
13	0x3ea67755	0.32512918
14	0xbec1377b	-0.3773764
15	0x3d0f8aa7	0.03504434
16	0x3d1da0af	0.038483318
17	0x3f1c7977	0.6112284
18	0xbeb1589c	-0.34637916
19	0xbdc21099	-0.09475822
20	0xbde1ec22	-0.11031367
21	0xbf161e32	-0.58639824
22	0x3f20842c	0.6270168
23	0xbf10eb85	-0.56609374
24	0xbd9065c7	-0.070506625
25	0x3f487dbf	0.78316873
26	0x3f592adb	0.8483102
27	0x3f186333	0.59526366
28	0xbde56cfd	-0.112024285
29	0x3db68b37	0.08913272
30	0xbf03ebf5	-0.51531917
31	0x3ee3265b	0.443652
32	0xbf8d4101	-1.1035463
33	0x3efb1d96	0.4904601
34	0xbeb5ca05	-0.3550569
35	0xbf17d887	-0.5931477
36	0xbde6dd83	-0.11272719
37	0xbee5f0e8	-0.4491036
38	0xbc307ee3	-0.01077244
39	0x3f01b7af	0.50670904
40	0x3f14a1aa	0.5805918
41	0xbe108734	-0.14114076
42	0x3ec802b5	0.39064565
43	0x3e02b53e	0.12764451
44	0x3ee9b888	0.456486
45	0x3f8a82d1	1.0821172
46	0x3f0344f7	0.51277107
47	0x3f912f28	1.1342516
48	0x3e08f8dc	0.13376182
49	0x3dec6c62	0.1154411
50	0x3e9b429e	0.30324262
51	0x3e553380	0.20820427
52	0x3ee0d05d	0.4390897
53	0x3e7a7619	0.24459113
54	0x3ddc8294	0.10767093
55	0xbf2d5c18	-0.6771865
56	0xbf3aa654	-0.72910047
57	0x3deb35b9	0.11484856
58	0x3eded702	0.43523413
59	0x3df1f2ee	0.11813913
60	0x3e726000	0.23669434
61	0x3f0a510d	0.54029924
62	0xbef5d336	-0.48012704
63	0xbe119b0b	-0.142193
64	0x3cba80af	0.02276644
65	0xbe3ceaa6	-0.18448886
66	0xbec59040	-0.38586617
67	0x3e6a17f5	0.22860701
68	0xbf4a62b1	-0.7905684
69	0x3deea9a9	0.11653454
70	0x3ec18ec8	0.37804246
71	0x3ea5376a	0.3226884
72	0xbcc07f18	-0.023498103
73	0xbeb26170	-0.34839964
74	0x3db0cd9e	0.08632968
75	0x3e8af39d	0.27138987
76	0x3f3debbb	0.7418782
77	0xbecc2433	-0.39871368
78	0xbec8dd24	-0.39231217
79	0x3e908e30	0.2823348
80	0x3ec348df	0.38141534
81	0x3ed0cef9	0.40782908
82	0x3e487ee5	0.19579656
83	0x3f6367d5	0.8883031
84	0x3dd65b0c	0.104665846
85	0xbe8b184b	-0.27166972
86	0x3e9749d7	0.29548523
87	0xbf2102a6	-0.62894666
88	0x3e189518	0.14900625
89	0x3f712926	0.9420341
90	0x3de42ea1	0.11141706
91	0x3ca0c728	0.019626215
92	0x3d6cda28	0.057825238
93	0x3eb0eeec	0.34557283
94	0x3f4805fe	0.78134143
95	0xbdaeab9e	-0.08528827
96	0x3e10d295	0.1414283
97	0x3f2ed748	0.68297243
98	0x3f5141cd	0.8174103
99	0x3ddddfdb	0.10833713
100	0x3f1ebaae	0.620036
101	0xbebafe89	-0.3652232
102	0xbeaa569e	-0.3326921
103	0xbea6c374	-0.32570994
104	0x3f2501a1	0.6445561
105	0x3f3c3b97	0.73528427
106	0xbf36445a	-0.71198046
107	0x3f094fc1	0.5363732
108	0xbeee8a4d	-0.4658989
109	0xbe172d56	-0.14763388
110	0x3e768760	0.24075079
111	0xbf8b4e27	-1.0883225
112	0x3f65e0ac	0.8979595
113	0xbf8ab020	-1.0834999
114	0xbe3b800f	-0.18310569
115	0xbf7bbb0c	-0.98332286
116	0xbfa8710e	-1.3159502
117	0xbe07e79f	-0.1327195
118	0xbf84cfa5	-1.0375868
119	0xbf11b662	-0.5691892
120	0x3d632127	0.05545154
121	0xbd83fcb1	-0.064446814
122	0x3edd27cd	0.43194428
123	0xbb645e78	-0.0034846347
124	0x3ef64a08	0.48103356
125	0xbdf474d4	-0.11936346
126	0x3e85f42f	0.2616286
127	0xbefb3fd6	-0.4907214
128	0xbd83cecd	-0.064359285
129	0x3e7638e1	0.24045135
130	0x3f265c1a	0.64984286
131	0x3c700a44	0.014650885
132	0xbdbf546f	-0.09342276
133	0xbefa7d4f	-0.48923728
134	0xbd16a0cc	-0.03677444
135	0xbdbe236b	-0.09284099
136	0xbe18e917	-0.14932667
137	0xba7b95d5	-0.0009597217
138	0x3f442576	0.7661966
139	0x3a10f686	0.0005529899
140	0x3e89b6c0	0.2689724
141	0x3e03d01e	0.12872359
142	0x3ec86995	0.39143053
143	0x3da1c062	0.07898022
144	0x3e988248	0.29786897
145	0xbec02906	-0.37531298
146	0x3f2dc9ff	0.67886347
147	0xbf162136	-0.58644426
148	0xbd221321	-0.039569024
149	0x3e34a1b0	0.17639804
150	0x3e1b72d4	0.15180522
151	0x3f234f6a	0.6379305
152	0xbea0d611	-0.3141332
153	0x3f1a02f4	0.60160756
154	0x3d0adee9	0.03390399
155	0x3e8b8056	0.2724635
156	0xbd377853	-0.044792484
157	0x3e02bf09	0.12768187
158	0x3e3c5404	0.18391424
159	0x3ee96b44	0.4558965
160	0x3d5dffa0	0.05419886
161	0x3e42af61	0.19012214
162	0xbeecf261	-0.4627867
163	0x3f57583e	0.8411902
164	0xbf247541	-0.64241415
165	0xbe73baf6	-0.23801789
166	0xbc722781	-0.014779926
167	0x3ec2c117	0.3803794
168	0x3f66e631	0.90194994
169	0x3f1d67a2	0.61486256
170	0xbf3dd79f	-0.74157137
171	0xbea2a98b	-0.31769976
172	0x3f0eb21e	0.55740535
173	0x3d09cf4d	0.033644963
174	0x3f3abfaf	0.72948736
175	0x3e648cae	0.2231929
176	0x3d6308a1	0.05542815
177	0x3f157cc3	0.58393496
178	0x3dc77efc	0.09741017
179	0xbe2dac95	-0.16960366
180	0x3f09bf82	0.5380784
181	0x3bb9f79b	0.005675269
182	0xbe3e7c7e	-0.18602178
183	0x3f273af3	0.65324324
184	0x3eee92ef	0.46596476
185	0x3eadaff0	0.33923292
186	0xbdbb2c50	-0.09139311
187	0x3db335c8	0.08750492
188	0x3e8b7cfc	0.27243793
189	0x3f28515a	0.6574913
190	0x3f3f8674	0.74814534
191	0x3d6d49ed	0.05793183
192	0x3f53bfdd	0.82714635
193	0xbe228cdf	-0.1587405
194	0x3e09d6bb	0.1346082
195	0x3e9b3fdd	0.3032216
196	0x3e6d498f	0.23172592
197	0x3ea68e95	0.32530656
198	0x3e9f5fa6	0.3112766
199	0x3d471b92	0.048610277

sequential_1/dense_1/MatMul f4 [20, 42]
0	0x3e49c4a8	0.19703925
1	0x3e133532	0.14375761
2	0x3e828b22	0.25496775
3	0xbf2fcd07	-0.6867222
4	0x3d26a439	0.04068396
5	0xbefa9ed7	-0.4894931
6	0x3e9a970b	0.30193362
7	0xbec4346c	-0.38321245
8	0x3f0ab078	0.5417552
9	0xbef0dc15	-0.4704291
10	0x3ee46ee4	0.44615853
11	0xbef23ce2	-0.47312075
12	0x3ecf5c39	0.40500048
13	0xbe6e61f4	-0.23279554
14	0x3e8e7911	0.2782674
15	0x3ab2e53c	0.001364864
16	0x3ef222df	0.4729223
17	0x3bf02574	0.0073286835
18	0x3ef5d6b6	0.48015374
19	0xbebeb245	-0.37245384
20	0x3e0061dc	0.1253733
21	0xbe4d1b48	-0.20029938
22	0x3f00c92a	0.5030695
23	0x3d3d075c	0.046149597
24	0x3edff8b3	0.4374443
25	0x3e75d574	0.24007207
26	0x3efd73fc	0.49502552
27	0x3dc56da0	0.0964005
28	0x3e1850dd	0.14874597
29	0x3d98a846	0.074539706
30	0xbe865e92	-0.26244026
31	0x3ea0205e	0.31274694
32	0x3d0bb183	0.034104835
33	0x3d96e3c1	0.07367659
34	0x3ebce4ff	0.3689346
35	0x3e515c37	0.20445333
36	0xbe311d54	-0.17296344
37	0x3eb28cc1	0.34873012
38	0x3de2cc6d	0.110741474
39	0x3ea8146a	0.32828075
40	0xbdef1f8c	-0.11675939
41	0x3ed1c4bc	0.4097041
42	0xbe615852	-0.22006348
43	0x3dd76984	0.105181724
44	0xbefb6ee6	-0.49108046
45	0xbf171534	-0.5901673
46	0xbeec9da0	-0.46214008
47	0xbf11c46b	-0.56940335
48	0xbe969822	-0.29412943
49	0xbed511e4	-0.41615212
50	0xbddf7c5f	-0.10912394
51	0xbf2143f8	-0.6299434
52	0xbe22e867	-0.15908967
53	0x3d0729b8	0.03299877
54	0xbe9a1bca	-0.30099326
55	0xbd38caec	-0.045115396
56	0xbf0a4e6a	-0.540259
57	0x3e8401cc	0.2578262
58	0xbdb17fc3	-0.08666947
59	0x3ec124a9	0.37723282
60	0xbf28861d	-0.6582964
61	0x3e73f5ae	0.23824188
62	0xbed356d0	-0.4127717
63	0xbd48336e	-0.048877172
64	0xbeac2f5d	-0.33629885
65	0x3e869b68	0.2629044
66	0xbe60fe03	-0.21971898
67	0x3e820e23	0.2540141
68	0xbe405837	-0.18783651
69	0x3e079051	0.13238646
70	0xbd9837d6	-0.07432525
71	0x3ea40bcf	0.3204026
72	0xbdd6eb03	-0.10494044
73	0x3ea540c2	0.3227597
74	0x3e8cddca	0.27512962
75	0x3e6e1c47	0.23252974
76	0xbe6e9c45	-0.233018
77	0x3f082d19	0.53193814
78	0xbe77f13a	-0.24213114
79	0x3eeaec66	0.45883483
80	0x3e3dd1d4	0.18537074
81	0x3e933026	0.28747672
82	0x3eaa508c	0.33264577
83	0x3f130a23	0.5743734
84	0x3e4e011c	0.2011761
85	0x3dd390d0	0.10330355
86	0x3e9f2a09	0.31086758
87	0xbc5b6da7	-0.013392842
88	0x3eadb1fe	0.3392486
89	0x3c86c872	0.016453002
90	0xbd89144e	-0.06693326
91	0xbcd79d44	-0.026320107
92	0xb9f6b112	-0.00047052704
93	0x3e1d3dc9	0.153556
94	0x3edd9df2	0.43284565
95	0x3e035a5e	0.12827441
96	0x3dd4512b	0.10367044
97	0xbe069adc	-0.13145012
98	0xbc2d3ada	-0.010573113
99	0xbda8b7eb	-0.082382046
100	0xbc78e02b	-0.015190165
101	0x3dec449c	0.11536524
102	0x3e85b719	0.26116255
103	0x3d505ac3	0.050867807
104	0x3d89659a	0.06708832
105	0xbeb557ba	-0.35418493
106	0xbd8465ca	-0.06464727
107	0xbe0604fc	-0.13087839
108	0xbcd53fe2	-0.026031438
109	0x3db1bdf2	0.08678807
110	0x3eeaf8dd	0.45892993
111	0xbe99cba9	-0.30038193
112	0x3d64583e	0.055748217
113	0xbf21d320	-0.63212776
114	0xbe72eabd	-0.23722358
115	0xbedff13a	-0.4373873
116	0xbe24dc8a	-0.16099754
117	0xbec4266f	-0.38310573
118	0xbd5a74fd	-0.053334225
119	0xbee2773e	-0.442316
120	0xbd9357d9	-0.0719449
121	0xbf297b8f	-0.6620416
122	0xbda7dad1	-0.08196033
123	0xbf234605	-0.63778716
124	0xbe2611c2	-0.16217712
125	0xbec3194f	-0.38105246
126	0xbe9b81d6	-0.30372494
127	0x3e20ae56	0.15691504
128	0xbe81a3a6	-0.25320166
129	0xbefd17c3	-0.4943219
130	0x3c9b46ff	0.018954752
131	0x3e501923	0.20322089
132	0xbe450fb0	-0.19244266
133	0x3e69aa04	0.22818762
134	0xbeddca4b	-0.433184
135	0x3ede4b0d	0.43416634
136	0x3e18bbcc	0.14915389
137	0x3ddbcc07	0.107322745
138	0x3d0400c3	0.03222729
139	0xbe183e41	-0.14867498
140	0xbe257ac0	-0.16160107
141	0x3e55aec1	0.20867445
142	0x3ce7711b	0.028252175
143	0x3ecfcc7a	0.4058569
144	0x3e4f3dc5	0.20238407
145	0x3eb362e3	0.35036382
146	0x3d403cb8	0.046932906
147	0x3f0e08fd	0.55482465
148	0xbc33fb82	-0.010985257
149	0x3ec0bb19	0.37642744
150	0x3c9fdefe	0.01951551
151	0x3ec72eaf	0.38902804
152	0x3e3427d5	0.1759332
153	0x3e2bc0b1	0.16772725
154	0x3e84811e	0.2587976
155	0x3e9fc34c	0.31203687
156	0xbe633601	-0.2218857
157	0x3f2b14d3	0.6682865
158	0xbe25beb0	-0.16186023
159	0x3f3c071f	0.73448366
160	0x3e081394	0.13288718
161	0x3f7ee915	0.99574405
162	0x3dbdb579	0.09263129
163	0x3f6b2d04	0.91865563
164	0xbe2943d7	-0.16529785
165	0x3f549332	0.830371
166	0xbc86c506	-0.01645137
167	0x3f5ac3b7	0.8545489
168	0x3e404bf2	0.18778971
169	0xbe80be74	-0.25145304
170	0x3e8d65c9	0.27616718
171	0xbf6c46bc	-0.9229543
172	0x3dafdb0c	0.08586702
173	0xbeec3b7d	-0.46139136
174	0x3ef327e6	0.47491378
175	0xbf2ecdc4	-0.68282723
176	0x3ec3931f	0.38198182
177	0xbeb31898	-0.349797
178	0x3d3299d1	0.043603722
179	0xbee640c6	-0.44971293
180	0x3dbd66b3	0.09248104
181	0xbe131582	-0.14363673
182	0x3decb0cc	0.11557159
183	0x3e0a813b	0.1352586
184	0x3e917a1a	0.2841347
185	0x3eae1d67	0.34006807
186	0x3ee5d2de	0.4488744
187	0xbef233f8	-0.47305274
188	0xbde17715	-0.11009041
189	0x3e0acf25	0.13555582
190	0x3e9c68aa	0.30548602
191	0x3e797e50	0.2436459
192	0x3e8d88bc	0.27643383
193	0x3ed2c7c7	0.41168043
194	0x3e32000d	0.17382832
195	0xbea6d78e	-0.3258633
196	0x3df64d32	0.120264426
197	0xbc4b782f	-0.012418791
198	0x3e1e4bd3	0.15458612
199	0x3d224469	0.039616022
200	0xbd58b65b	-0.052908283
201	0x3e7704f5	0.24122985
202	0x3ec85c3c	0.3913287
203	0xbedf960b	-0.4366916
204	0xbe5751f4	-0.21027356
205	0xbe328a4c	-0.17435569
206	0x3cd89392	0.026437555
207	0x3e139145	0.14410885
208	0x3e3b78ec	0.18307847
209	0x3c9b5079	0.01895927
210	0xbe84eb26	-0.25960654
211	0x3e8e38a8	0.277776
212	0xbe89c9f1	-0.26911882
213	0x3eaa11c2	0.33216673
214	0xbe1cd84f	-0.1531689
215	0x3e8ca049	0.27466038
216	0xbe934ed2	-0.28771073
217	0x3e43c20b	0.1911699
218	0xbee7fde5	-0.45310894
219	0x3de909ea	0.11378844
220	0xbbea9d12	-0.0071598375
221	0x3e464c3d	0.1936502
222	0x3dd8c8ea	0.10585196
223	0x3cc9a950	0.024616867
224	0x3e8b230f	0.27175185
225	0xbe18ce8f	-0.14922546
226	0x3eddb206	0.43299884
227	0xbec0c754	-0.37652075
228	0xbd80343a	-0.062599614
229	0x3d35a0c8	0.044342786
230	0x3dc33a3a	0.0953259
231	0x3df3e8c0	0.11909628
232	0x3e8eb07b	0.2786902
233	0xbe7c2a79	-0.24625577
234	0x3e86285f	0.26202676
235	0xbf0e527c	-0.5559461
236	0xbe1c05f4	-0.15236646
237	0x3debbf0c	0.11511049
238	0xbd0fc735	-0.035102088
239	0x3e326004	0.1741944
240	0xbd0894fb	-0.033345204
241	0x3dd32b95	0.10311047
242	0xbdc7d837	-0.097580366
243	0x3d77f966	0.06054058
244	0xbcc1a28b	-0.023637077
245	0x3e83a370	0.2571063
246	0xbd187b18	-0.037226766
247	0x3e829299	0.2550247
248	0xbcd77af8	-0.026303753
249	0xbc699cce	-0.014258577
250	0xbd17d730	-0.037070453
251	0xbd15994b	-0.036523145
252	0x3dade668	0.08491212
253	0xbe987a37	-0.29780743
254	0xbe013a13	-0.1261981
255	0xbe79aa51	-0.24381377

sequential_1/dense_1/Relu;sequential_1/dense_1/BiasAdd f4 [20]
0	0x3e1317e0	0.14364576
1	0x3e9e99e4	0.30976784
2	0xbebbc3ca	-0.36672813
3	0x3f00f116	0.5036787
4	0x3ce9df82	0.02854896
5	0x3cd8ef8a	0.026481409
6	0xbe169237	-0.14704214
7	0xbe025dd0	-0.12731099
8	0xbf02ce0a	-0.5109564
9	0x3dc12b9d	0.09432147
10	0x3dcd1d15	0.100153126
11	0x3e1b539a	0.1516861
12	0xbd4a189c	-0.049339876
13	0xbe93d074	-0.28869975
14	0xbdca6b31	-0.098837264
15	0x3e2773f5	0.16352828
16	0xbca39bd0	-0.019971758
17	0x3ec9adba	0.39390355
18	0xbdde2a93	-0.10847964
19	0x3e286983	0.164465
